assets/ml/object_labeler3.tflite (tflite, 508786 bytes, 28 tensors)

MobilenetV1/Logits/Conv2d_1c_1x1/weights_quant/FakeQuantWithMinMaxVars u1 [1001, 1, 1, 256] scale=0.005540293 zero_point=94
-0.01662088 -0.011080586 -0.011080586 -0.01662088 -0.01662088 -0.01662088 -0.01662088 -0.01662088
-0.011080586 -0.01662088 -0.011080586 -0.01662088 -0.01662088 -0.011080586 -0.022161173 -0.011080586
-0.011080586 -0.011080586 -0.011080586 -0.022161173 -0.011080586 -0.011080586 -0.011080586 -0.01662088
-0.011080586 -0.01662088 -0.011080586 -0.011080586 -0.011080586 -0.027701465 -0.011080586 -0.022161173
-0.011080586 -0.011080586 -0.01662088 -0.011080586 -0.011080586 -0.027701465 -0.011080586 -0.01662088
-0.011080586 -0.01662088 -0.01662088 -0.011080586 -0.01662088 -0.011080586 -0.011080586 -0.01662088
-0.01662088 -0.01662088 -0.011080586 -0.011080586 -0.022161173 -0.011080586 -0.011080586 -0.01662088
-0.011080586 -0.011080586 -0.01662088 -0.011080586 -0.005540293 -0.011080586 -0.022161173 -0.01662088
-0.01662088 -0.01662088 -0.011080586 -0.01662088 -0.011080586 -0.011080586 -0.011080586 -0.01662088
-0.01662088 -0.01662088 -0.011080586 -0.011080586 -0.011080586 -0.011080586 -0.01662088 -0.011080586
-0.01662088 -0.01662088 -0.01662088 -0.01662088 -0.011080586 -0.011080586 -0.01662088 -0.01662088
-0.011080586 -0.01662088 -0.01662088 -0.01662088 -0.011080586 -0.01662088 -0.011080586 -0.01662088
-0.011080586 -0.011080586 -0.022161173 -0.011080586 -0.022161173 -0.022161173 -0.01662088 -0.01662088
-0.011080586 -0.01662088 -0.01662088 -0.01662088 -0.01662088 -0.022161173 -0.011080586 -0.011080586
-0.01662088 -0.011080586 -0.01662088 -0.011080586 -0.011080586 -0.01662088 -0.01662088 -0.011080586
-0.01662088 -0.011080586 -0.011080586 -0.011080586 -0.01662088 -0.022161173 -0.005540293 -0.011080586
-0.011080586 -0.011080586 -0.01662088 -0.011080586 -0.01662088 -0.011080586 -0.01662088 -0.022161173
-0.01662088 -0.011080586 -0.011080586 -0.011080586 -0.01662088 -0.01662088 -0.01662088 -0.01662088
-0.022161173 -0.01662088 -0.011080586 -0.022161173 -0.022161173 -0.011080586 -0.027701465 -0.027701465
-0.011080586 -0.01662088 -0.011080586 -0.011080586 -0.01662088 -0.011080586 -0.022161173 -0.011080586
-0.011080586 -0.011080586 -0.01662088 -0.011080586 -0.01662088 -0.011080586 -0.01662088 -0.011080586
-0.011080586 -0.01662088 -0.01662088 -0.01662088 -0.022161173 -0.011080586 -0.011080586 -0.011080586
-0.01662088 -0.022161173 -0.022161173 -0.011080586 -0.01662088 -0.01662088 -0.011080586 -0.011080586
-0.011080586 -0.01662088 -0.011080586 -0.011080586 -0.011080586 -0.011080586 -0.011080586 -0.011080586
-0.011080586 -0.011080586 -0.011080586 -0.011080586 -0.01662088 -0.011080586 -0.011080586 -0.022161173
-0.011080586 -0.011080586 -0.022161173 -0.027701465 -0.01662088 -0.022161173 -0.01662088 -0.022161173
-0.011080586 -0.01662088 -0.005540293 -0.011080586 -0.022161173 -0.01662088 -0.022161173 -0.01662088
-0.011080586 -0.011080586 -0.01662088 -0.011080586 -0.01662088 -0.011080586 -0.01662088 -0.01662088
-0.011080586 -0.01662088 -0.01662088 -0.01662088 -0.011080586 -0.027701465 -0.011080586 -0.01662088
-0.011080586 -0.011080586 -0.011080586 -0.01662088 -0.011080586 -0.01662088 -0.027701465 -0.022161173
-0.011080586 -0.011080586 -0.011080586 -0.022161173 -0.011080586 -0.011080586 -0.011080586 -0.011080586
-0.011080586 -0.011080586 -0.011080586 -0.011080586 -0.011080586 -0.011080586 -0.01662088 -0.011080586
00000000: 5b5c 5c5b 5b5b 5b5b 5c5b 5c5b 5b5c 5a5c
00000010: 5c5c 5c5a 5c5c 5c5b 5c5b 5c5c 5c59 5c5a
00000020: 5c5c 5b5c 5c59 5c5b 5c5b 5b5c 5b5c 5c5b
00000030: 5b5b 5c5c 5a5c 5c5b 5c5c 5b5c 5d5c 5a5b
00000040: 5b5b 5c5b 5c5c 5c5b 5b5b 5c5c 5c5c 5b5c
00000050: 5b5b 5b5b 5c5c 5b5b 5c5b 5b5b 5c5b 5c5b
00000060: 5c5c 5a5c 5a5a 5b5b 5c5b 5b5b 5b5a 5c5c
00000070: 5b5c 5b5c 5c5b 5b5c 5b5c 5c5c 5b5a 5d5c
00000080: 5c5c 5b5c 5b5c 5b5a 5b5c 5c5c 5b5b 5b5b
00000090: 5a5b 5c5a 5a5c 5959 5c5b 5c5c 5b5c 5a5c
000000a0: 5c5c 5b5c 5b5c 5b5c 5c5b 5b5b 5a5c 5c5c
000000b0: 5b5a 5a5c 5b5b 5c5c 5c5b 5c5c 5c5c 5c5c
000000c0: 5c5c 5c5c 5b5c 5c5a 5c5c 5a59 5b5a 5b5a
000000d0: 5c5b 5d5c 5a5b 5a5b 5c5c 5b5c 5b5c 5b5b
000000e0: 5c5b 5b5b 5c59 5c5b 5c5c 5c5b 5c5b 595a
000000f0: 5c5c 5c5a 5c5c 5c5c 5c5c 5c5c 5c5c 5b5c

MobilenetV1/MobilenetV1/Conv2d_0/weights_quant/FakeQuantWithMinMaxVars u1 [8, 3, 3, 3] scale=0.00888241 zero_point=157
0.026647229 0.01776482 0.01776482 0.01776482 0.01776482 0.00888241 0.026647229 0.026647229
0.01776482 0.01776482 0.0 0.0 0.01776482 0.00888241 0.00888241 0.03552964
0.026647229 0.00888241 0.01776482 0.0 -0.00888241 0.01776482 0.00888241 0.00888241
0.026647229 0.01776482 0.01776482 -0.20429543 0.47076774 -0.23982507 -0.3641788 0.7194752
-0.346414 -0.21317783 0.42635566 -0.21317783 -0.25758988 0.5507094 -0.28423712 -0.4530029
0.8704762 -0.4352381 -0.23982507 0.48853254 -0.25758988 -0.07994169 0.1776482 -0.106588915
-0.1776482 0.3552964 -0.19541302 -0.03552964 0.12435374 -0.0888241 0.07105928 0.06217687
0.053294457 0.07105928 0.04441205 0.03552964 0.04441205 0.026647229 0.01776482 0.06217687
0.04441205 0.03552964 0.07105928 0.04441205 0.026647229 0.06217687 0.03552964 0.01776482
0.07105928 0.04441205 0.03552964 0.07994169 0.053294457 0.026647229 0.09770651 0.053294457
0.026647229 -0.28423712 0.07105928 0.22206025 -0.30200192 0.07105928 0.23982507 -0.06217687
0.01776482 0.053294457 -0.3730612 0.106588915 0.2753547 -0.39082605 0.106588915 0.29311952
-0.07994169 0.026647229 0.053294457 -0.15100096 0.06217687 0.07994169 -0.15988338 0.04441205
0.106588915 0.01776482 -0.01776482 -0.00888241 0.4618853 0.7994169 0.115471326 0.39082605
0.7283576 0.1865306 -0.14211856 -0.16876578 0.053294457 -0.7994169 -1.385656 -0.1776482
-0.58623904 -1.2435374 -0.25758988 0.06217687 0.14211856 -0.07105928 0.29311952 0.6306511
0.053294457 0.23982507 0.6128863 0.13323615 -0.12435374 -0.1776482 0.00888241 0.00888241
0.0 0.0 0.026647229 0.026647229 0.03552964 0.0 0.00888241 0.04441205
0.03552964 0.01776482 0.03552964 0.04441205 0.03552964 0.06217687 0.04441205 0.053294457
0.0888241 0.03552964 0.026647229 0.06217687 0.04441205 0.03552964 0.06217687 0.06217687
0.053294457 0.09770651 -0.23982507 -0.3641788 -0.0888241 -0.39082605 -0.59512144 -0.15100096
-0.19541302 -0.25758988 -0.06217687 -0.053294457 -0.026647229 -0.026647229 -0.13323615 -0.09770651
-0.03552964 -0.0888241 -0.06217687 -0.00888241 0.13323615 0.15100096 0.03552964 0.1776482
0.20429543 0.053294457 0.06217687 0.07105928 0.04441205 -0.0888241 -0.16876578 -0.04441205
-0.0888241 -0.15100096 -0.04441205 0.00888241 -0.00888241 -0.00888241 -0.21317783 -0.32864916
-0.0888241 -0.19541302 -0.31088436 -0.0888241 -0.00888241 0.0 -0.01776482 -0.13323615
-0.15988338 -0.04441205 -0.12435374 -0.16876578 -0.04441205 -0.00888241 0.03552964 0.0
00000000: a09f 9f9f 9f9e a0a0 9f9f 9d9d 9f9e 9ea1
00000010: a09e 9f9d 9c9f 9e9e a09f 9f86 d282 74ee
00000020: 7685 cd85 80db 7d6a ff6c 82d4 8094 b191
00000030: 89c5 8799 ab93 a5a4 a3a5 a2a1 a2a0 9fa4
00000040: a2a1 a5a2 a0a4 a19f a5a2 a1a6 a3a0 a8a3
00000050: a07d a5b6 7ba5 b896 9fa3 73a9 bc71 a9be
00000060: 94a0 a38c a4a6 8ba2 a99f 9b9c d1f7 aac9
00000070: efb2 8d8a a343 0189 5b11 80a4 ad95 bee4
00000080: a3b8 e2ac 8f89 9e9e 9d9d a0a0 a19d 9ea2
00000090: a19f a1a2 a1a4 a2a3 a7a1 a0a4 a2a1 a4a4
000000a0: a3a8 8274 9371 5a8c 8780 9697 9a9a 8e92
000000b0: 9993 969c acae a1b1 b4a3 a4a5 a293 8a98
000000c0: 938c 989e 9c9c 8578 9387 7a93 9c9d 9b8e
000000d0: 8b98 8f8a 989c a19d

MobilenetV1/MobilenetV1/Conv2d_10_depthwise/weights_quant/FakeQuantWithMinMaxVars u1 [1, 3, 3, 128] scale=0.022778166 zero_point=135
0.38722882 -0.136669 -0.022778166 0.0 -0.091112666 -0.0683345 0.0 -0.022778166
0.045556333 -0.25055984 -0.022778166 0.136669 0.022778166 0.0 0.0 0.045556333
0.0683345 -0.022778166 -0.0683345 -0.091112666 -0.022778166 -0.15944716 -0.022778166 0.022778166
0.0 -0.022778166 0.113890834 -0.31889433 0.0 -0.022778166 -0.0683345 -0.022778166
-0.38722882 0.2050035 -0.045556333 0.18222533 -0.7516795 -0.091112666 -0.0683345 -0.091112666
0.25055984 -0.045556333 0.136669 -0.091112666 -0.136669 0.0 0.15944716 -0.045556333
-0.091112666 0.045556333 -0.0683345 -0.045556333 -0.022778166 -0.136669 0.045556333 0.273338
-0.15944716 0.045556333 -0.045556333 -0.045556333 -0.045556333 -0.18222533 -0.113890834 -0.113890834
-0.022778166 -0.136669 0.113890834 0.091112666 0.045556333 -0.022778166 -0.022778166 -0.15944716
0.045556333 -0.022778166 -0.136669 0.091112666 -0.25055984 0.15944716 0.0 -0.091112666
0.0683345 0.273338 -0.045556333 -0.091112666 -0.15944716 0.045556333 -0.113890834 0.0683345
-0.022778166 -0.15944716 0.0 -0.022778166 0.136669 0.15944716 0.113890834 0.022778166
-0.0683345 -0.045556333 -0.022778166 -0.113890834 -0.045556333 -0.136669 -0.091112666 0.091112666
0.091112666 -0.091112666 -0.113890834 -0.113890834 -0.022778166 -0.022778166 -0.36445066 -0.045556333
0.022778166 -0.2050035 -0.091112666 0.25055984 -0.045556333 0.136669 -0.091112666 0.022778166
0.2050035 -0.022778166 -0.022778166 0.2050035 0.29611617 0.113890834 0.045556333 0.18222533
-0.25055984 -0.7289013 0.136669 -0.091112666 -0.22778167 0.273338 -0.136669 -0.136669
0.18222533 -0.045556333 -0.045556333 0.113890834 0.113890834 -0.045556333 -0.18222533 0.2050035
0.113890834 -0.25055984 0.091112666 -0.136669 0.0 -0.36445066 -0.25055984 0.091112666
-0.022778166 0.273338 -0.113890834 -0.25055984 0.15944716 -0.2050035 -0.136669 -0.113890834
-0.29611617 0.2050035 0.045556333 -0.022778166 0.84279215 -0.113890834 -0.29611617 0.0
0.63778865 -0.0683345 -0.79723585 -0.15944716 -0.31889433 0.136669 -0.113890834 -0.3416725
0.0 0.113890834 -0.25055984 -0.29611617 0.0683345 -0.15944716 -0.045556333 -0.136669
-0.4783415 0.15944716 -0.045556333 0.22778167 0.0 -0.091112666 -0.091112666 -0.045556333
0.18222533 -0.113890834 -0.6605668 0.29611617 0.820014 0.091112666 -0.022778166 0.0683345
0.0 -0.15944716 -0.045556333 0.273338 -0.38722882 0.546676 -0.022778166 0.79723585
-0.022778166 -0.4783415 0.136669 -0.956683 -0.2050035 0.0683345 -0.2050035 -0.113890834
-0.136669 -0.25055984 -0.22778167 -0.136669 0.022778166 0.6605668 0.091112666 0.0
-0.5011197 -0.091112666 -0.136669 -0.22778167 -0.18222533 -0.022778166 -0.15944716 0.29611617
0.091112666 -0.136669 -0.25055984 -0.0683345 0.25055984 0.25055984 -0.5011197 -0.29611617
-0.2050035 -0.31889433 -0.136669 -0.22778167 0.022778166 0.18222533 0.0 -0.022778166
0.18222533 0.0683345 -0.15944716 0.59223235 0.7289013 0.59223235 -0.18222533 -0.045556333
00000000: 9881 8687 8384 8786 897c 868d 8887 8789
00000010: 8a86 8483 8680 8688 8786 8c79 8786 8486
00000020: 7690 858f 6683 8483 9285 8d83 8187 8e85
00000030: 8389 8485 8681 8993 8089 8585 857f 8282
00000040: 8681 8c8b 8986 8680 8986 818b 7c8e 8783
00000050: 8a93 8583 8089 828a 8680 8786 8d8e 8c88
00000060: 8485 8682 8581 838b 8b83 8282 8686 7785
00000070: 887e 8392 858d 8388 9086 8690 948c 898f
00000080: 7c67 8d83 7d93 8181 8f85 858c 8c85 7f90
00000090: 8c7c 8b81 8777 7c8b 8693 827c 8e7e 8182
000000a0: 7a90 8986 ac82 7a87 a384 6480 798d 8278
000000b0: 878c 7c7a 8a80 8581 728e 8591 8783 8385
000000c0: 8f82 6a94 ab8b 868a 8780 8593 769f 86aa
000000d0: 8672 8d5d 7e8a 7e82 817c 7d81 88a4 8b87
000000e0: 7183 817d 7f86 8094 8b81 7c84 9292 717a
000000f0: 7e79 817d 888f 8786 8f8a 80a1 a7a1 7f85

MobilenetV1/MobilenetV1/Conv2d_10_pointwise/weights_quant/FakeQuantWithMinMaxVars u1 [128, 1, 1, 128] scale=0.007225684 zero_point=131
0.33960715 0.079482526 -0.028902736 0.0433541 -0.09393389 -0.05780547 0.007225684 -0.028902736
0.007225684 -0.014451368 0.11561094 -0.014451368 0.03612842 0.13006231 -0.050579786 -0.10838526
-0.15173936 0.028902736 0.065031156 0.0 -0.09393389 0.46244377 -0.11561094 0.014451368
0.079482526 0.03612842 -0.03612842 0.3540585 0.10115957 0.13728799 -0.10838526 0.12283663
0.09393389 0.050579786 0.014451368 0.028902736 -0.0867082 0.13006231 0.16619073 -0.028902736
0.14451368 0.07225684 0.14451368 -0.10115957 -0.02167705 0.007225684 -0.05780547 -0.0433541
-0.050579786 -0.09393389 0.13728799 0.028902736 -0.028902736 0.079482526 -0.028902736 0.0
-0.23844756 0.028902736 -0.079482526 0.29625303 0.10115957 0.12283663 0.0433541 -0.079482526
0.028902736 -0.0433541 -0.02167705 -0.007225684 -0.10838526 0.03612842 0.028902736 -0.007225684
0.05780547 0.05780547 0.065031156 -0.1734164 0.03612842 0.007225684 0.028902736 -0.03612842
0.1734164 0.065031156 -0.05780547 0.007225684 -0.09393389 0.05780547 -0.028902736 -0.05780547
0.0433541 0.007225684 -0.028902736 0.007225684 0.28902736 -0.11561094 -0.0433541 -0.007225684
-0.10838526 0.065031156 -0.03612842 -0.028902736 0.007225684 -0.10838526 -0.007225684 0.014451368
0.065031156 -0.02167705 0.16619073 -0.15896505 -0.03612842 -0.007225684 -0.25289893 0.12283663
-0.12283663 -0.03612842 -0.1806421 0.15896505 0.007225684 0.11561094 0.0 0.0433541
-0.050579786 0.065031156 -0.079482526 -0.05780547 -0.13006231 0.014451368 -0.079482526 -0.42631534
-0.050579786 -0.13006231 0.15896505 -0.2239962 -0.079482526 -0.09393389 0.11561094 -0.18786778
-0.0867082 0.0433541 0.0433541 0.13006231 0.15896505 -0.3685099 0.13728799 0.050579786
0.065031156 0.03612842 0.079482526 0.20231915 -0.079482526 0.13006231 0.05780547 -0.0867082
-0.065031156 0.0867082 0.4046383 -0.050579786 0.05780547 0.12283663 -0.0433541 0.0
-0.014451368 -0.014451368 -0.33960715 0.05780547 -0.03612842 0.028902736 0.028902736 -0.07225684
-0.05780547 0.3179301 0.03612842 -0.014451368 -0.11561094 -0.32515576 0.065031156 0.007225684
-0.014451368 -0.2239962 -0.02167705 -0.079482526 0.20231915 -0.050579786 -0.7659225 0.050579786
-0.0433541 0.0433541 -0.42631534 -0.18786778 -0.37573555 0.12283663 0.03612842 -0.13006231
0.0 -0.050579786 -0.0867082 -0.007225684 0.10838526 0.050579786 0.09393389 0.05780547
0.028902736 0.0 -0.19509347 0.050579786 -0.21677051 0.014451368 0.014451368 0.15173936
-0.014451368 -0.05780547 0.0433541 0.007225684 -0.0867082 0.0433541 0.065031156 0.0867082
-0.28180167 0.0433541 0.10838526 0.14451368 0.20231915 -0.2239962 -0.0433541 0.24567325
0.15896505 0.13728799 -0.10115957 -0.28902736 0.41908967 -0.20231915 0.15173936 -0.25289893
0.10838526 0.13006231 0.02167705 0.079482526 0.16619073 -0.10838526 0.14451368 0.28180167
0.050579786 -0.028902736 0.11561094 0.014451368 0.27457598 -0.05780547 0.014451368 -0.23844756
0.15173936 0.28180167 -0.05780547 -0.15896505 0.028902736 0.065031156 -0.19509347 -0.02167705
00000000: b28e 7f89 767b 847f 8481 9381 8895 7c74
00000010: 6e87 8c83 76c3 7385 8e88 7eb4 9196 7494
00000020: 908a 8587 7795 9a7f 978d 9775 8084 7b7d
00000030: 7c76 9687 7f8e 7f83 6287 78ac 9194 8978
00000040: 877d 8082 7488 8782 8b8b 8c6b 8884 877e
00000050: 9b8c 7b84 768b 7f7b 8984 7f84 ab73 7d82
00000060: 748c 7e7f 8474 8285 8c80 9a6d 7e82 6094
00000070: 727e 6a99 8493 8389 7c8c 787b 7185 7848
00000080: 7c71 9964 7876 9369 7789 8995 9950 968a
00000090: 8c88 8e9f 7895 8b77 7a8f bb7c 8b94 7d83
000000a0: 8181 548b 7e87 8779 7baf 8881 7356 8c84
000000b0: 8164 8078 9f7c 198a 7d89 4869 4f94 8871
000000c0: 837c 7782 928a 908b 8783 688a 6585 8598
000000d0: 817b 8984 7789 8c8f 5c89 9297 9f64 7da5
000000e0: 9996 755b bd67 9860 9295 868e 9a74 97aa
000000f0: 8a7f 9385 a97b 8562 98aa 7b6d 878c 6880

MobilenetV1/MobilenetV1/Conv2d_11_depthwise/weights_quant/FakeQuantWithMinMaxVars u1 [1, 3, 3, 128] scale=0.018258026 zero_point=147
-0.18258026 -0.054774076 0.03651605 0.03651605 -0.0730321 -0.12780619 0.054774076 -0.1460642
0.18258026 -0.10954815 0.054774076 0.03651605 0.10954815 -0.25561237 -0.18258026 -0.018258026
0.018258026 0.0 -0.0730321 -0.23735434 -0.23735434 0.054774076 0.12780619 -0.0730321
0.018258026 -0.03651605 -0.018258026 0.0730321 0.0 0.018258026 0.03651605 0.0
0.18258026 -0.054774076 0.1460642 0.2190963 -0.03651605 0.018258026 -0.054774076 0.0730321
-0.18258026 -0.0730321 0.018258026 0.12780619 -0.09129013 -0.16432223 0.1460642 -0.1460642
-0.25561237 0.054774076 -0.0730321 0.12780619 0.018258026 -0.09129013 0.47470868 0.09129013
-0.054774076 -0.09129013 -0.054774076 -0.0730321 -0.054774076 -0.12780619 0.09129013 -0.03651605
0.18258026 0.25561237 0.18258026 -0.16432223 0.09129013 0.018258026 0.0 -0.18258026
0.12780619 0.25561237 -0.10954815 0.018258026 0.0730321 -0.10954815 0.018258026 -0.054774076
-0.16432223 -0.018258026 -0.1460642 0.018258026 -0.03651605 0.1460642 -0.018258026 -0.018258026
0.27387038 0.018258026 0.18258026 0.03651605 0.03651605 0.018258026 0.2190963 0.3469025
-0.1460642 0.054774076 0.03651605 0.03651605 -0.09129013 0.03651605 -0.10954815 -0.09129013
0.4929667 0.03651605 0.03651605 0.054774076 0.32864445 0.018258026 0.054774076 0.054774076
0.0 -0.0730321 -0.0730321 0.03651605 -0.018258026 0.16432223 0.12780619 0.018258026
0.12780619 -0.018258026 0.03651605 0.09129013 -0.10954815 -0.03651605 0.0 -0.2190963
-0.4381926 -0.10954815 0.27387038 0.20083828 0.3469025 -0.12780619 0.2921284 -0.45645064
0.3469025 0.82161117 0.31038645 0.23735434 0.4929667 -0.32864445 0.054774076 0.054774076
-0.12780619 0.27387038 0.18258026 -0.2921284 -0.5659988 0.27387038 0.12780619 -0.18258026
0.20083828 -0.1460642 0.1460642 -0.09129013 0.0 0.18258026 0.7850951 0.18258026
0.36516052 -0.12780619 -0.60251486 0.82161117 0.27387038 0.27387038 -0.18258026 0.3469025
-0.20083828 -0.03651605 0.2921284 -0.36516052 -0.20083828 -0.20083828 -0.18258026 -0.16432223
-0.54774076 0.27387038 0.5842568 0.3469025 -0.2190963 0.018258026 1.0407075 0.25561237
-0.20083828 -0.16432223 -0.2921284 -0.31038645 -0.51122475 -0.18258026 0.31038645 -0.16432223
0.0730321 0.5659988 0.16432223 -0.16432223 -0.09129013 0.054774076 0.5294827 -0.20083828
0.31038645 0.45645064 -0.10954815 0.1460642 -0.2921284 -0.32864445 0.40167657 0.2190963
-0.12780619 -0.0730321 -0.1460642 0.20083828 -0.5659988 0.31038645 0.18258026 0.1460642
1.3145778 0.25561237 -0.5294827 0.054774076 0.32864445 0.38341853 0.7850951 0.76683706
-0.18258026 0.2921284 0.73032105 -0.12780619 -0.20083828 0.2921284 -0.16432223 -0.1460642
0.6207729 -0.18258026 0.2921284 0.2921284 0.7485791 -0.12780619 0.36516052 0.20083828
0.2190963 -0.25561237 -0.20083828 -0.1460642 -0.31038645 0.5294827 0.32864445 0.23735434
0.4929667 0.20083828 -0.09129013 0.693805 -0.18258026 -0.16432223 0.2190963 -0.23735434
00000000: 8990 9595 8f8c 968b 9d8d 9695 9985 8992
00000010: 9493 8f86 8696 9a8f 9491 9297 9394 9593
00000020: 9d90 9b9f 9194 9097 898f 949a 8e8a 9b8b
00000030: 8596 8f9a 948e ad98 908e 908f 908c 9891
00000040: 9da1 9d8a 9894 9389 9aa1 8d94 978d 9490
00000050: 8a92 8b94 919b 9292 a294 9d95 9594 9fa6
00000060: 8b96 9595 8e95 8d8e ae95 9596 a594 9696
00000070: 938f 8f95 929c 9a94 9a92 9598 8d91 9387
00000080: 7b8d a29e a68c a37a a6c0 a4a0 ae81 9696
00000090: 8ca2 9d83 74a2 9a89 9e8b 9b8e 939d be9d
000000a0: a78c 72c0 a2a2 89a6 8891 a37f 8888 898a
000000b0: 75a2 b3a6 8794 cca1 888a 8382 7789 a48a
000000c0: 97b2 9c8a 8e96 b088 a4ac 8d9b 8381 a99f
000000d0: 8c8f 8b9e 74a4 9d9b dba1 7696 a5a8 bebd
000000e0: 89a3 bb8c 88a3 8a8b b589 a3a3 bc8c a79e
000000f0: 9f85 888b 82b0 a5a0 ae9e 8eb9 898a 9f86

MobilenetV1/MobilenetV1/Conv2d_11_pointwise/weights_quant/FakeQuantWithMinMaxVars u1 [128, 1, 1, 128] scale=0.007789616 zero_point=109
0.21031964 -0.07789616 0.015579232 -0.062316928 -0.124633856 0.2882158 0.23368847 -0.20253001
0.07789616 -0.13242348 -0.15579233 0.062316928 -0.015579232 -0.18695079 -0.15579233 0.109054625
0.16358194 -0.007789616 0.015579232 -0.031158464 0.11684424 -0.11684424 0.16358194 -0.22589886
0.31937426 0.101265006 -0.303795 0.18695079 0.109054625 0.14021309 -0.109054625 0.054527313
0.015579232 0.03894808 -0.015579232 0.085685775 0.13242348 -0.07010654 0.11684424 0.054527313
-0.015579232 0.17916116 0.007789616 -0.26484695 -0.07010654 -0.101265006 0.015579232 -0.17137155
0.1947404 0.101265006 -0.3816912 0.031158464 -0.007789616 -0.14021309 -0.07789616 -0.24926771
-0.085685775 0.17916116 0.07010654 0.07010654 0.16358194 0.1947404 -0.085685775 -0.16358194
0.13242348 0.17916116 0.046737697 -0.16358194 0.093475394 0.023368848 -0.22589886 0.0
0.1947404 -0.14021309 0.046737697 0.054527313 0.22589886 0.1480027 -0.03894808 -0.101265006
0.031158464 0.124633856 0.031158464 0.015579232 0.046737697 0.18695079 -0.11684424 0.1947404
0.109054625 -0.03894808 -0.20253001 0.023368848 0.031158464 -0.023368848 0.07010654 0.21810925
0.054527313 -0.22589886 0.20253001 -0.07789616 -0.023368848 0.031158464 0.101265006 0.0
-0.109054625 0.023368848 -0.015579232 0.4284289 0.22589886 -0.13242348 -0.11684424 0.24926771
0.1947404 0.031158464 0.20253001 0.07010654 0.07789616 -0.2882158 -0.031158464 0.03894808
0.046737697 0.28042617 0.13242348 0.11684424 -0.24926771 0.07789616 0.0 0.046737697
-0.27263656 0.046737697 -0.28042617 0.1480027 0.085685775 -0.17137155 -0.124633856 0.07010654
0.1480027 -0.093475394 -0.124633856 0.17916116 -0.22589886 0.14021309 0.28042617 0.054527313
-0.17916116 -0.1480027 -0.007789616 -0.21810925 0.031158464 0.085685775 -0.062316928 -0.15579233
0.023368848 0.303795 -0.25705734 0.3816912 -0.11684424 0.22589886 -0.17137155 0.17916116
-0.03894808 -0.085685775 -0.07010654 0.046737697 0.023368848 -0.2414781 0.13242348 -0.11684424
-0.015579232 -0.031158464 0.14021309 -0.13242348 0.124633856 -0.124633856 -0.07010654 0.11684424
0.22589886 -0.101265006 -0.023368848 -0.007789616 0.109054625 0.1947404 -0.109054625 -0.023368848
0.26484695 0.11684424 -0.16358194 0.07010654 0.093475394 0.20253001 0.101265006 0.17137155
-0.1947404 -0.1480027 -0.03894808 0.03894808 0.062316928 -0.124633856 -0.03894808 -0.031158464
0.062316928 0.03894808 -0.03894808 -0.03894808 0.22589886 0.3427431 0.109054625 0.26484695
0.07010654 0.13242348 0.0 -0.17137155 -0.015579232 0.16358194 0.046737697 -0.015579232
-0.13242348 0.101265006 0.007789616 0.27263656 -0.124633856 0.109054625 -0.101265006 -0.062316928
0.007789616 0.101265006 0.007789616 -0.07789616 -0.093475394 0.101265006 0.26484695 0.085685775
0.03894808 -0.109054625 -0.03894808 0.007789616 -0.124633856 0.27263656 0.054527313 -0.015579232
-0.15579233 0.054527313 0.20253001 0.13242348 0.007789616 0.046737697 -0.07010654 0.1947404
-0.40506002 -0.015579232 0.023368848 -0.13242348 0.124633856 -0.007789616 -0.18695079 -0.054527313
00000000: 8863 6f65 5d92 8b53 775c 5975 6b55 597b
00000010: 826c 6f69 7c5e 8250 967a 4685 7b7f 5f74
00000020: 6f72 6b78 7e64 7c74 6b84 6e4b 6460 6f57
00000030: 867a 3c71 6c5b 634d 6284 7676 8286 6258
00000040: 7e84 7358 7970 506d 865b 7374 8a80 6860
00000050: 717d 716f 7385 5e86 7b68 5370 716a 7689
00000060: 7450 8763 6a71 7a6d 5f70 6ba4 8a5c 5e8d
00000070: 8671 8776 7748 6972 7391 7e7c 4d77 6d73
00000080: 4a73 4980 7857 5d76 8061 5d84 507f 9174
00000090: 565a 6c51 7178 6559 7094 4c9e 5e8a 5784
000000a0: 6862 6473 704e 7e5e 6b69 7f5c 7d5d 647c
000000b0: 8a60 6a6c 7b86 5f6a 8f7c 5876 7987 7a83
000000c0: 545a 6872 755d 6869 7572 6868 8a99 7b8f
000000d0: 767e 6d57 6b82 736b 5c7a 6e90 5d7b 6065
000000e0: 6e7a 6e63 617a 8f78 725f 686e 5d90 746b
000000f0: 5974 877e 6e73 6486 396b 705c 7d6c 5566

MobilenetV1/MobilenetV1/Conv2d_12_depthwise/weights_quant/FakeQuantWithMinMaxVars u1 [1, 3, 3, 128] scale=0.005769346 zero_point=125
-0.15577234 0.30000597 -0.14423364 0.26538992 0.3519301 0.24808188 -0.15000299 -0.30577534
-0.15577234 0.4384703 -0.15000299 -0.15577234 -0.17884973 -0.23654318 0.2769286 0.29423663
-0.23654318 0.24808188 -0.31731403 0.3519301 -0.38077682 0.29423663 0.16154169 0.42116225
-0.15000299 0.24231252 0.31731403 -0.3288527 0.3403914 -0.40962356 0.40385422 0.2134658
-0.17884973 0.23077384 0.34616077 -0.15000299 0.31731403 0.23077384 0.2769286 -0.17884973
0.28269795 0.25385123 -0.21923515 0.3403914 -0.30577534 0.37500748 0.32308337 0.3403914
0.2884673 -0.30577534 -0.14423364 -0.4153929 -0.21923515 -0.29423663 -0.25385123 0.2250045
0.26538992 -0.17308038 -0.20769645 0.32308337 -0.48462504 0.2250045 0.20769645 0.53654915
0.25385123 0.2250045 0.35769945 0.32308337 0.39808488 -0.27115926 0.39808488 -0.25962058
-0.15577234 0.35769945 -0.29423663 0.24808188 -0.17884973 -0.23654318 0.32308337 0.2769286
0.25962058 -0.12692562 -0.16731103 -0.16154169 0.25962058 0.011538692 -0.15577234 -0.2250045
-0.35769945 0.29423663 -0.17884973 -0.5653959 0.2884673 -0.19615775 0.17884973 -0.24808188
0.18461907 0.3403914 -0.15000299 -0.2250045 0.24808188 0.37500748 0.05769346 -0.46731701
0.31731403 -0.5019331 0.34616077 -0.1384643 -0.11538692 -0.5653959 -0.20192711 0.31731403
0.23077384 -0.2769286 0.34616077 0.3634688 0.2769286 0.20192711 -0.53654915 -0.092309535
-0.16731103 0.24808188 -0.18461907 0.35769945 0.53077984 -0.3634688 0.29423663 0.30000597
-0.18461907 0.3634688 -0.17308038 0.3403914 0.38654616 0.30577534 -0.17884973 -0.35769945
-0.18461907 0.5423185 -0.19038841 -0.19615775 -0.21923515 -0.29423663 0.3519301 0.3634688
-0.29423663 0.30000597 -0.3519301 0.39808488 -0.4153929 0.36923814 0.19615775 0.51924115
-0.19038841 0.30000597 0.37500748 -0.3923155 0.42116225 -0.4788557 0.4788557 0.25385123
-0.2250045 0.29423663 0.4269316 -0.18461907 0.38654616 0.28269795 0.33462206 -0.21923515
0.3403914 0.3115447 -0.28269795 0.4153929 -0.3634688 0.43270093 0.36923814 0.38077682
0.3634688 -0.38077682 -0.17884973 -0.49616376 -0.2769286 -0.3519301 -0.3115447 0.2769286
0.32308337 -0.2134658 -0.25962058 0.39808488 -0.5769346 0.25962058 0.24808188 0.6115507
0.31731403 0.27115926 0.42116225 0.38077682 0.46731701 -0.32308337 0.4788557 -0.31731403
-0.19615775 0.4269316 -0.34616077 0.30577534 -0.20769645 -0.27115926 0.38654616 0.33462206
0.31731403 -0.14423364 -0.20192711 -0.19615775 0.3115447 0.017308038 -0.18461907 -0.2884673
-0.4384703 0.3634688 -0.21923515 -0.6519361 0.30000597 -0.24231252 0.21923515 -0.3115447
0.23654318 0.40385422 -0.17884973 -0.26538992 0.30000597 0.44423965 0.06923215 -0.53654915
0.36923814 -0.63462806 0.4153929 -0.17308038 -0.1384643 -0.6115507 -0.25385123 0.38077682
0.2884673 -0.34616077 0.3923155 0.42116225 0.3288527 0.25385123 -0.6634748 -0.11538692
-0.20769645 0.30000597 -0.2250045 0.4269316 0.59424263 -0.42116225 0.3634688 0.3403914
00000000: 62b1 64ab baa8 6348 62c9 6362 5e54 adb0
00000010: 54a8 46ba 3bb0 99c6 63a7 b444 b836 c3a2
00000020: 5ea5 b963 b4a5 ad5e aea9 57b8 48be b5b8
00000030: af48 6435 574a 51a4 ab5f 59b5 29a4 a1da
00000040: a9a4 bbb5 c24e c250 62bb 4aa8 5e54 b5ad
00000050: aa67 6061 aa7f 6256 3fb0 5e1b af5b 9c52
00000060: 9db8 6356 a8be 872c b426 b965 691b 5ab4
00000070: a54d b9bc ada0 206d 60a8 5dbb d93e b0b1
00000080: 5dbc 5fb8 c0b2 5e3f 5ddb 5c5b 574a babc
00000090: 4ab1 40c2 35bd 9fd7 5cb1 be39 c62a d0a9
000000a0: 56b0 c75d c0ae b757 b8b3 4cc5 3ec8 bdbf
000000b0: bc3b 5e27 4d40 47ad b558 50c2 19aa a8e7
000000c0: b4ac c6bf ce45 d046 5bc7 41b2 594e c0b7
000000d0: b464 5a5b b380 5d4b 31bc 570c b153 a347
000000e0: a6c3 5e4f b1ca 8920 bd0f c55f 6513 51bf
000000f0: af41 c1c6 b6a9 0a69 59b1 56c7 e434 bcb8

MobilenetV1/MobilenetV1/Conv2d_12_pointwise/weights_quant/FakeQuantWithMinMaxVars u1 [256, 1, 1, 128] scale=0.009962311 zero_point=113
-0.019924622 -0.3686055 -0.029886933 -0.10958542 0.029886933 0.13947235 -0.11954773 -0.11954773
-0.11954773 0.019924622 -0.16935928 -0.059773866 0.019924622 0.0 0.099623114 0.2689824
-0.0896608 -0.019924622 -0.0896608 -0.10958542 0.12951005 -0.029886933 -0.029886933 0.059773866
0.069736175 -0.009962311 -0.5678517 -0.07969849 0.12951005 -0.039849244 0.0 -0.019924622
0.07969849 -0.019924622 -0.009962311 0.069736175 -0.019924622 -0.0896608 0.1892839 -0.059773866
0.039849244 -0.10958542 0.039849244 0.8268718 -0.069736175 -0.1892839 -0.14943467 0.029886933
-0.059773866 0.1892839 0.2789447 -0.0896608 0.029886933 0.019924622 -0.0896608 -0.15939698
0.049811557 0.029886933 -0.029886933 -0.19924623 -0.11954773 0.049811557 -0.07969849 -0.1793216
0.039849244 0.07969849 -0.12951005 0.11954773 0.1892839 -0.029886933 -0.1892839 -0.029886933
-0.069736175 -0.14943467 0.009962311 0.059773866 0.0896608 0.069736175 -0.069736175 0.21917084
-0.039849244 0.049811557 -0.07969849 -0.10958542 0.16935928 0.099623114 0.039849244 0.009962311
-0.059773866 -0.069736175 0.019924622 0.039849244 -0.19924623 -0.059773866 0.11954773 -0.10958542
-0.07969849 -0.049811557 -0.14943467 0.15939698 -0.0896608 0.1892839 0.0896608 -0.009962311
0.20920853 -0.019924622 0.0 -0.099623114 -0.07969849 -0.12951005 -0.23909546 -0.14943467
0.11954773 -0.059773866 0.0896608 -0.12951005 0.059773866 0.029886933 -0.10958542 -0.049811557
-0.039849244 0.099623114 -0.039849244 0.039849244 0.07969849 0.099623114 -0.2590201 0.009962311
-0.069736175 -0.099623114 -0.14943467 0.0 -0.1793216 -0.099623114 0.13947235 -0.029886933
0.0896608 -0.039849244 -0.20920853 0.2590201 -0.1892839 -0.20920853 0.0 -0.2689824
-0.039849244 0.10958542 -0.21917084 0.019924622 -0.14943467 -0.0896608 0.07969849 0.009962311
-0.019924622 -0.019924622 -0.049811557 0.15939698 -0.099623114 0.10958542 -0.029886933 0.069736175
0.029886933 0.13947235 0.039849244 -0.019924622 -0.019924622 0.049811557 -0.10958542 0.21917084
0.1793216 -0.12951005 0.23909546 -0.019924622 0.20920853 0.10958542 -0.20920853 0.24905777
-0.11954773 0.23909546 -0.069736175 -0.029886933 -0.10958542 -0.21917084 0.009962311 0.20920853
0.1892839 -0.029886933 0.019924622 0.14943467 -0.1892839 0.11954773 -0.099623114 0.069736175
0.099623114 0.029886933 -0.0896608 -0.049811557 -0.11954773 0.099623114 -0.049811557 -0.20920853
0.0896608 0.1793216 -0.19924623 -0.009962311 -0.16935928 0.6475502 -0.14943467 0.1892839
-0.15939698 0.049811557 0.19924623 -0.22913316 -0.16935928 -0.16935928 0.13947235 -0.009962311
0.07969849 0.009962311 -0.029886933 -0.0896608 0.15939698 0.19924623 0.0896608 -0.059773866
0.019924622 0.13947235 0.07969849 0.20920853 0.14943467 -0.059773866 -0.12951005 0.07969849
0.11954773 -0.07969849 0.049811557 -0.069736175 -0.29886934 -0.1892839 -0.15939698 0.009962311
-0.16935928 0.15939698 -0.0896608 -0.0896608 0.049811557 -0.20920853 -0.21917084 -0.2789447
-0.039849244 -0.13947235 -0.13947235 0.11954773 0.009962311 0.049811557 -0.019924622 -0.16935928
00000000: 6f4c 6e66 747f 6565 6573 606b 7371 7b8c
00000010: 686f 6866 7e6e 6e77 7870 3869 7e6d 716f
00000020: 796f 7078 6f68 846b 7566 75c4 6a5e 6274
00000030: 6b84 8d68 7473 6861 7674 6e5d 6576 695f
00000040: 7579 647d 846e 5e6e 6a62 7277 7a78 6a87
00000050: 6d76 6966 827b 7572 6b6a 7375 5d6b 7d66
00000060: 696c 6281 6884 7a70 866f 7167 6964 5962
00000070: 7d6b 7a64 7774 666c 6d7b 6d75 797b 5772
00000080: 6a67 6271 5f67 7f6e 7a6d 5c8b 5e5c 7156
00000090: 6d7c 5b73 6268 7972 6f6f 6c81 677c 6e78
000000a0: 747f 756f 6f76 6687 8364 896f 867c 5c8a
000000b0: 6589 6a6e 665b 7286 846e 7380 5e7d 6778
000000c0: 7b74 686c 657b 6c5c 7a83 5d70 60b2 6284
000000d0: 6176 855a 6060 7f70 7972 6e68 8185 7a6b
000000e0: 737f 7986 806b 6479 7d69 766a 535e 6172
000000f0: 6081 6868 765c 5b55 6d63 637d 7276 6f60

MobilenetV1/MobilenetV1/Conv2d_13_depthwise/weights_quant/FakeQuantWithMinMaxVars u1 [1, 3, 3, 256] scale=0.025790064 zero_point=165
-0.3610609 0.5931715 -0.38685095 0.20632051 -0.38685095 0.5931715 -0.6447516 -0.103160255
0.51580125 0.41264102 0.23211057 0.051580127 -0.43843108 -0.051580127 -0.43843108 -0.33527082
-0.2836907 0.2836907 0.30948076 -0.3610609 -0.25790063 0.0 -0.33527082 -0.18053044
-0.12895031 -0.3610609 -0.49001122 0.43843108 0.051580127 0.6447516 -0.2836907 -0.41264102
-0.41264102 -0.23211057 -0.2836907 0.3610609 -0.23211057 0.15474038 -0.18053044 0.38685095
-0.25790063 -0.07737019 -0.46422115 0.30948076 0.82528204 0.23211057 -0.103160255 -0.2836907
0.15474038 -2.424266 0.38685095 -0.12895031 1.0573926 0.67054164 0.20632051 -0.025790064
0.38685095 -0.33527082 0.30948076 -0.25790063 0.3610609 0.38685095 0.20632051 -0.23211057
0.23211057 -0.20632051 0.25790063 0.38685095 0.3610609 -0.12895031 -0.51580125 0.18053044
-0.051580127 -0.20632051 -0.18053044 0.15474038 0.20632051 -0.33527082 0.30948076 -0.54159135
-0.51580125 0.0 -0.3610609 0.025790064 -0.025790064 -0.051580127 0.15474038 0.0
0.07737019 -2.1921554 1.0058125 0.33527082 -0.15474038 0.46422115 -1.212133 -0.30948076
-0.49001122 -0.18053044 0.5673814 0.7737019 0.6447516 -0.18053044 0.5673814 -0.051580127
-0.12895031 0.43843108 -0.18053044 0.30948076 -0.799492 0.103160255 -0.07737019 -0.30948076
-1.212133 -0.2836907 0.49001122 0.43843108 -0.20632051 0.23211057 0.3610609 1.1089728
-0.33527082 -0.15474038 0.20632051 0.103160255 1.2895032 -0.025790064 -1.9342548 -0.46422115
-0.23211057 -0.20632051 -0.18053044 -0.38685095 0.18053044 -0.49001122 0.25790063 -0.051580127
0.6189615 -0.3610609 0.15474038 -0.23211057 -0.103160255 -0.20632051 -0.18053044 0.025790064
0.15474038 -0.2836907 -0.46422115 -0.20632051 -0.20632051 0.15474038 -0.49001122 1.5474038
-2.6305864 0.18053044 0.43843108 -0.43843108 0.98002243 -0.33527082 0.07737019 -0.38685095
-0.07737019 -0.67054164 0.6447516 0.051580127 0.43843108 -0.025790064 0.30948076 0.20632051
-0.20632051 -0.30948076 0.25790063 -0.2836907 -0.025790064 -1.7021441 -0.33527082 0.3610609
0.2836907 -0.7221218 -0.12895031 0.12895031 -0.07737019 0.051580127 0.49001122 -0.23211057
-2.1663654 0.49001122 -0.15474038 0.41264102 0.07737019 -0.23211057 -0.25790063 0.3610609
-0.8510721 -0.25790063 0.54159135 0.025790064 0.87686217 0.30948076 0.33527082 0.30948076
0.3610609 0.25790063 -0.54159135 -2.2437356 0.69633174 -0.12895031 1.186343 -0.54159135
0.25790063 0.15474038 0.38685095 0.2836907 0.82528204 0.12895031 -0.15474038 -0.54159135
0.87686217 -0.18053044 0.38685095 -0.07737019 -0.15474038 -0.49001122 -0.46422115 0.15474038
-0.15474038 -0.33527082 -0.41264102 0.41264102 0.20632051 -0.051580127 1.5216137 -0.2836907
-0.3610609 0.7737019 0.12895031 -0.30948076 -0.5673814 -0.07737019 -0.18053044 0.46422115
-1.0316025 -0.67054164 0.103160255 0.30948076 0.20632051 0.12895031 -0.46422115 0.103160255
0.15474038 -0.18053044 -0.12895031 -1.0573926 -0.20632051 -0.49001122 -0.41264102 0.23211057
00000000: 97bc 96ad 96bc 8ca1 b9b5 aea7 94a3 9498
00000010: 9ab0 b197 9ba5 989e a097 92b6 a7be 9a95
00000020: 959c 9ab3 9cab 9eb4 9ba2 93b1 c5ae a19a
00000030: ab47 b4a0 cebf ada4 b498 b19b b3b4 ad9c
00000040: ae9d afb4 b3a0 91ac a39d 9eab ad98 b190
00000050: 91a5 97a6 a4a3 aba5 a850 ccb2 9fb7 7699
00000060: 929e bbc3 be9e bba3 a0b6 9eb1 86a9 a299
00000070: 769a b8b6 9dae b3d0 989f ada9 d7a4 5a93
00000080: 9c9d 9e96 ac92 afa3 bd97 ab9c a19d 9ea6
00000090: ab9a 939d 9dab 92e1 3fac b694 cb98 a896
000000a0: a28b bea7 b6a4 b1ad 9d99 af9a a463 98b3
000000b0: b089 a0aa a2a7 b89c 51b8 9fb5 a89c 9bb3
000000c0: 849b baa6 c7b1 b2b1 b3af 904e c0a0 d390
000000d0: afab b4b0 c5aa 9f90 c79e b4a2 9f92 93ab
000000e0: 9f98 95b5 ada3 e09a 97c3 aa99 8fa2 9eb7
000000f0: 7d8b a9b1 adaa 93a9 ab9e a07c 9d92 95ae

MobilenetV1/MobilenetV1/Conv2d_13_pointwise/weights_quant/FakeQuantWithMinMaxVars u1 [256, 1, 1, 256] scale=0.02338353 zero_point=144
-0.49105412 -0.04676706 0.09353412 0.49105412 -0.21045177 0.3039859 0.16368471 -0.09353412
-0.07015059 -0.07015059 -0.5378212 0.44428706 -0.65473884 -0.35075295 -0.02338353 -0.32736942
-0.4676706 0.02338353 -0.21045177 0.25721884 0.42090353 -0.21045177 0.4676706 0.0
-0.02338353 -0.21045177 0.0 -0.56120473 -1.4731624 0.3039859 -0.39752 -0.49105412
-0.79504 0.5845882 0.09353412 0.49105412 0.02338353 0.18706824 -0.04676706 0.07015059
0.28060237 -0.5378212 -0.42090353 -0.07015059 -0.02338353 -0.8651906 0.25721884 -0.4676706
-0.44428706 -0.2338353 0.02338353 0.21045177 0.21045177 0.0 -0.02338353 -0.74827296
0.32736942 -0.18706824 -0.42090353 0.39752 -0.39752 0.84180707 -0.3039859 -0.9353412
-0.25721884 -0.28060237 0.18706824 0.6079718 -0.35075295 0.5845882 -0.14030118 -0.18706824
0.0 0.07015059 0.35075295 0.37413648 -0.35075295 0.5378212 -0.4676706 -0.02338353
-0.09353412 0.3039859 0.11691765 -0.7015059 -0.11691765 -0.02338353 0.44428706 0.18706824
-0.28060237 0.11691765 -0.25721884 0.18706824 0.32736942 -0.2338353 0.09353412 -0.42090353
-0.25721884 0.39752 0.09353412 -0.16368471 -0.28060237 0.32736942 0.28060237 0.32736942
-0.07015059 0.18706824 0.25721884 -0.44428706 0.21045177 0.04676706 0.5144377 -0.3039859
-0.28060237 -0.25721884 0.11691765 0.49105412 0.42090353 0.5144377 0.67812234 0.14030118
-0.09353412 0.04676706 -0.32736942 -0.16368471 -0.21045177 -0.67812234 0.7248894 -0.42090353
-0.56120473 0.14030118 -0.6313553 0.44428706 0.56120473 0.18706824 0.79504 -0.07015059
0.2338353 0.32736942 -0.11691765 -0.32736942 -0.11691765 -0.04676706 0.21045177 -0.37413648
0.16368471 -0.04676706 0.5144377 -0.9119577 -0.11691765 -0.28060237 -0.25721884 0.02338353
0.2338353 -0.21045177 -0.07015059 0.28060237 0.44428706 0.14030118 -0.09353412 -0.28060237
-0.5378212 -0.02338353 0.18706824 -0.49105412 0.5845882 0.42090353 -0.35075295 -0.42090353
-0.37413648 0.21045177 -0.2338353 -1.0054917 0.14030118 0.18706824 -0.09353412 -0.2338353
-0.4676706 0.35075295 0.04676706 0.32736942 -0.04676706 0.81842357 0.25721884 0.02338353
0.11691765 0.18706824 -0.42090353 0.4676706 0.32736942 -0.56120473 0.44428706 -0.56120473
0.02338353 -0.37413648 -0.4676706 -0.16368471 -0.49105412 -0.04676706 0.3039859 -0.56120473
-0.2338353 0.04676706 0.04676706 -0.14030118 -0.04676706 -0.7716565 0.8885741 -0.02338353
-0.9119577 -0.5144377 -0.25721884 0.02338353 -0.16368471 -0.25721884 0.3039859 0.04676706
0.0 -0.4676706 0.32736942 -0.04676706 0.07015059 0.0 -0.35075295 0.21045177
0.42090353 0.7015059 -0.16368471 -0.28060237 -0.21045177 -0.04676706 0.0 -0.09353412
0.0 0.35075295 0.02338353 -0.21045177 0.16368471 -0.6079718 -0.21045177 -0.21045177
0.04676706 -0.02338353 0.07015059 -0.2338353 -0.18706824 0.21045177 -0.25721884 0.18706824
0.3039859 -0.2338353 0.16368471 -0.11691765 -0.04676706 -0.09353412 0.11691765 0.21045177
00000000: 7b8e 94a5 879d 978c 8d8d 79a3 7481 8f82
00000010: 7c91 879b a287 a490 8f87 9078 519d 7f7b
00000020: 6ea9 94a5 9198 8e93 9c79 7e8d 8f6b 9b7c
00000030: 7d86 9199 9990 8f70 9e88 7ea1 7fb4 8368
00000040: 8584 98aa 81a9 8a88 9093 9fa0 81a7 7c8f
00000050: 8c9d 9572 8b8f a398 8495 8598 9e86 947e
00000060: 85a1 9489 849e 9c9e 8d98 9b7d 9992 a683
00000070: 8485 95a5 a2a6 ad96 8c92 8289 8773 af7e
00000080: 7896 75a3 a898 b28d 9a9e 8b82 8b8e 9980
00000090: 978e a669 8b84 8591 9a87 8d9c a396 8c84
000000a0: 798f 987b a9a2 817e 8099 8665 9698 8c86
000000b0: 7c9f 929e 8eb3 9b91 9598 7ea4 9e78 a378
000000c0: 9180 7c89 7b8e 9d78 8692 928a 8e6f b68f
000000d0: 697a 8591 8985 9d92 907c 9e8e 9390 8199
000000e0: a2ae 8984 878e 908c 909f 9187 9776 8787
000000f0: 928f 9386 8899 8598 9d86 978b 8e8c 9599

MobilenetV1/MobilenetV1/Conv2d_1_depthwise/weights_quant/FakeQuantWithMinMaxVars u1 [1, 3, 3, 8] scale=0.08940034 zero_point=204
-6.7050257 -0.08940034 -0.08940034 0.08940034 -0.08940034 -0.17880069 0.08940034 0.0
-10.728042 -0.08940034 0.0 -0.08940034 0.35760137 -0.08940034 0.35760137 0.35760137
-3.665414 0.17880069 -0.08940034 0.0 -0.17880069 -0.17880069 -0.17880069 -0.35760137
0.89400345 0.6258024 -0.08940034 -0.17880069 -0.08940034 -0.17880069 -0.35760137 0.0
-18.14827 0.26820102 -0.17880069 0.8046031 1.6986065 -0.17880069 -0.71520275 1.0728041
4.5594177 -0.35760137 -0.08940034 0.71520275 -0.26820102 -0.17880069 0.17880069 -1.2516048
-2.5032096 0.6258024 -0.17880069 0.08940034 0.17880069 -0.08940034 0.0 0.0
-7.6884294 0.26820102 -0.17880069 -0.17880069 -2.056208 -0.17880069 -0.17880069 0.26820102
-7.6884294 -0.26820102 -0.08940034 0.0 0.44700173 -0.17880069 0.08940034 -0.17880069
00000000: 81cb cbcd cbca cdcc 54cb cccb d0cb d0d0
00000010: a3ce cbcc caca cac8 d6d3 cbca cbca c8cc
00000020: 01cf cad5 dfca c4d8 ffc8 cbd4 c9ca cebe
00000030: b0d3 cacd cecb cccc 76cf caca b5ca cacf
00000040: 76c9 cbcc d1ca cdca

MobilenetV1/MobilenetV1/Conv2d_1_pointwise/weights_quant/FakeQuantWithMinMaxVars u1 [16, 1, 1, 8] scale=0.016090909 zero_point=120
0.0 1.2068182 0.0 -0.04827273 0.0 0.0 -0.016090909 0.0
0.0 1.6412727 0.0 0.16090909 0.0 0.0 0.0 0.032181818
0.0 0.0 0.0 -0.04827273 -1.9148182 0.0 -0.016090909 -0.032181818
0.0 -0.08045454 0.0 0.08045454 0.032181818 0.0 1.7860909 0.112636365
0.0 -1.3355454 0.0 -0.25745454 -0.04827273 0.0 -0.46663636 -0.09654546
0.0 -0.08045454 0.0 -0.016090909 0.0 0.0 -0.32181817 2.1722727
0.0 0.032181818 0.0 1.1746364 0.0 0.0 0.016090909 0.0
0.0 -0.08045454 0.0 -0.16090909 0.016090909 0.0 0.16090909 -0.77236366
0.0 1.3516364 0.0 -0.112636365 -0.016090909 0.0 0.016090909 -0.016090909
0.0 0.0 0.0 -0.22527273 0.064363636 0.0 -1.9148182 0.4988182
0.0 0.0 0.0 0.0 1.8021818 0.0 0.016090909 -0.032181818
0.0 0.016090909 0.0 -0.016090909 -0.08045454 0.0 1.77 0.12872727
0.0 0.0 0.0 -0.032181818 1.8343636 0.0 -0.064363636 -0.09654546
0.0 0.04827273 0.0 -0.04827273 0.016090909 0.0 0.04827273 -1.0780909
0.0 -0.016090909 0.0 0.0 -0.08045454 0.0 1.3516364 0.016090909
0.0 0.0 0.032181818 -0.016090909 0.0 0.0 0.0 0.016090909
00000000: 78c3 7875 7878 7778 78de 7882 7878 787a
00000010: 7878 7875 0178 7776 7873 787d 7a78 e77f
00000020: 7825 7868 7578 5b72 7873 7877 7878 64ff
00000030: 787a 78c1 7878 7978 7873 786e 7978 8248
00000040: 78cc 7871 7778 7977 7878 786a 7c78 0197
00000050: 7878 7878 e878 7976 7879 7877 7378 e680
00000060: 7878 7876 ea78 7472 787b 7875 7978 7b35
00000070: 7877 7878 7378 cc79 7878 7a77 7878 7879

MobilenetV1/MobilenetV1/Conv2d_2_depthwise/weights_quant/FakeQuantWithMinMaxVars u1 [1, 3, 3, 16] scale=0.04799445 zero_point=204
-0.2879667 0.0 -0.33596116 0.52793896 0.52793896 -0.7679112 0.4799445 0.0959889
0.14398335 -0.0959889 -0.23997225 -0.14398335 -0.33596116 -0.62392783 -0.0959889 -1.1518668
-2.1117558 0.43195003 -0.5759334 0.81590563 -0.23997225 0.33596116 0.52793896 -1.6798058
-0.91189456 -0.0959889 -0.43195003 -0.0959889 -0.5759334 1.4398335 -0.1919778 -9.742873
2.447717 0.7679112 -0.23997225 0.3839556 0.04799445 0.43195003 -0.5759334 1.5358224
-0.7679112 -0.0959889 -0.1919778 0.0 -0.2879667 -0.6719223 0.0 -9.550896
-0.91189456 0.14398335 -0.1919778 -0.33596116 0.2879667 -0.52793896 0.4799445 0.04799445
0.0 -0.14398335 -0.14398335 0.5759334 0.33596116 -0.3839556 -0.1919778 -6.9112005
-0.959889 0.14398335 -0.2879667 -0.5759334 -0.2879667 0.1919778 0.52793896 -1.1038723
-0.1919778 -0.23997225 -0.23997225 1.0558779 0.5759334 0.91189456 -0.23997225 -5.4233727
2.1117558 -0.04799445 -0.14398335 -0.33596116 0.23997225 0.2879667 -0.4799445 1.1038723
0.0959889 -0.23997225 -0.0959889 0.52793896 0.2879667 -0.33596116 0.0 -8.30304
1.0558779 0.0 0.0 -0.14398335 0.2879667 0.04799445 0.04799445 0.04799445
-0.0959889 -0.14398335 0.0 -0.5759334 0.0 0.0959889 -0.0959889 1.5358224
-0.959889 -0.2879667 -0.04799445 -0.1919778 0.04799445 0.0 -0.04799445 0.0959889
0.1919778 -0.14398335 0.0 -1.0558779 -0.04799445 -0.14398335 -0.0959889 -1.8717835
-0.43195003 -0.1919778 0.0 -0.0959889 -0.0959889 -0.04799445 0.04799445 -0.0959889
0.0 -0.14398335 0.0 -0.52793896 0.0 0.04799445 0.04799445 -1.6318113
00000000: c6cc c5d7 d7bc d6ce cfca c7c9 c5bf cab4
00000010: a0d5 c0dd c7d3 d7a9 b9ca c3ca c0ea c801
00000020: ffdc c7d4 cdd5 c0ec bcca c8cc c6be cc05
00000030: b9cf c8c5 d2c1 d6cd ccc9 c9d8 d3c4 c83c
00000040: b8cf c6c0 c6d0 d7b5 c8c7 c7e2 d8df c75b
00000050: f8cb c9c5 d1d2 c2e3 cec7 cad7 d2c5 cc1f
00000060: e2cc ccc9 d2cd cdcd cac9 ccc0 ccce caec
00000070: b8c6 cbc8 cdcc cbce d0c9 ccb6 cbc9 caa5
00000080: c3c8 ccca cacb cdca ccc9 ccc1 cccd cdaa

MobilenetV1/MobilenetV1/Conv2d_2_pointwise/weights_quant/FakeQuantWithMinMaxVars u1 [32, 1, 1, 16] scale=0.047678262 zero_point=120
-0.095356524 0.047678262 -0.23839131 1.1442783 0.095356524 -0.047678262 -0.047678262 -0.047678262
-0.047678262 -0.095356524 1.0966 0.905887 0.095356524 -0.095356524 -0.19071305 0.0
-0.047678262 -0.42910436 -0.095356524 0.0 0.33374783 0.047678262 2.4315913 0.0
-0.23839131 -0.5244609 0.047678262 -0.047678262 0.0 0.047678262 0.047678262 0.0
0.0 0.0 0.095356524 0.0 -0.047678262 4.5294347 0.0 -1.0012435
0.047678262 0.0 0.23839131 0.047678262 -0.095356524 -2.1932 -0.047678262 0.0
0.19071305 -0.047678262 0.14303479 0.0 -0.095356524 1.4780262 -0.047678262 1.0012435
-0.047678262 -0.095356524 0.23839131 0.047678262 0.095356524 -1.6687392 0.0 0.0
3.623548 -0.71517396 0.047678262 0.0 -0.42910436 0.095356524 0.28606957 -0.14303479
-0.42910436 -0.23839131 0.095356524 0.0 0.047678262 -0.047678262 -0.14303479 0.0
-0.095356524 -0.095356524 0.19071305 -0.047678262 0.047678262 1.5257044 0.047678262 -5.5783567
0.0 0.19071305 0.42910436 0.095356524 0.047678262 2.6223044 0.047678262 0.0
0.047678262 -0.047678262 1.4780262 -2.3362348 0.095356524 0.23839131 -0.047678262 0.0
0.0 -0.047678262 -0.7628522 -5.673713 0.66749567 -0.047678262 2.0501652 0.0
0.23839131 -0.047678262 0.095356524 0.047678262 0.0 0.047678262 0.047678262 1.2873131
-0.047678262 -0.19071305 0.19071305 0.0 0.0 1.2873131 0.0 0.0
0.095356524 0.23839131 -0.23839131 0.095356524 0.095356524 0.0 0.0 0.0
0.14303479 -0.905887 -0.23839131 0.095356524 -0.095356524 0.0 -2.0501652 0.0
0.23839131 0.57213914 -0.047678262 0.047678262 0.095356524 0.0 0.42910436 0.0
1.5257044 0.095356524 0.0 -0.047678262 0.0 0.047678262 0.0 0.0
0.28606957 0.0 0.3814261 -0.14303479 -0.23839131 -2.2885566 0.047678262 -0.14303479
0.14303479 -0.47678262 0.3814261 -0.23839131 0.3814261 5.101574 -0.3814261 0.0
0.095356524 0.0 0.095356524 -0.047678262 -0.14303479 0.47678262 0.047678262 -1.6210608
0.0 -0.14303479 0.14303479 -0.047678262 0.047678262 0.95356524 -0.095356524 0.0
0.0 0.0 -0.3814261 6.4365654 0.0 0.19071305 0.047678262 0.14303479
0.0 0.14303479 1.9548087 0.3814261 0.47678262 0.095356524 0.5244609 0.0
0.047678262 0.14303479 0.0 0.095356524 0.0 0.0 -0.095356524 -0.047678262
-0.095356524 -0.5244609 0.095356524 0.095356524 0.0 0.0 1.3826696 0.0
0.047678262 -0.095356524 0.0 1.5257044 -0.28606957 0.0 0.0 0.047678262
-0.047678262 0.19071305 0.0 -0.8105304 0.28606957 0.047678262 0.3814261 0.0
0.0 0.0 0.0 -0.095356524 -0.047678262 -0.047678262 0.0 -0.047678262
0.0 0.14303479 -0.28606957 0.0 -4.1956873 -0.047678262 0.047678262 0.0
00000000: 7679 7390 7a77 7777 7776 8f8b 7a76 7478
00000010: 776f 7678 7f79 ab78 736d 7977 7879 7978
00000020: 7878 7a78 77d7 7863 7978 7d79 764a 7778
00000030: 7c77 7b78 7697 778d 7776 7d79 7a55 7878
00000040: c469 7978 6f7a 7e75 6f73 7a78 7977 7578
00000050: 7676 7c77 7998 7903 787c 817a 79af 7978
00000060: 7977 9747 7a7d 7778 7877 6801 8677 a378
00000070: 7d77 7a79 7879 7993 7774 7c78 7893 7878
00000080: 7a7d 737a 7a78 7878 7b65 737a 7678 4d78
00000090: 7d84 7779 7a78 8178 987a 7877 7879 7878
000000a0: 7e78 8075 7348 7975 7b6e 8073 80e3 7078
000000b0: 7a78 7a77 7582 7956 7875 7b77 798c 7678
000000c0: 7878 70ff 787c 797b 787b a180 827a 8378
000000d0: 797b 787a 7878 7677 766d 7a7a 7878 9578
000000e0: 7976 7898 7278 7879 777c 7867 7e79 8078
000000f0: 7878 7876 7777 7877 787b 7278 2077 7978

MobilenetV1/MobilenetV1/Conv2d_3_depthwise/weights_quant/FakeQuantWithMinMaxVars u1 [1, 3, 3, 32] scale=0.034030553 zero_point=149
0.068061106 -0.13612221 0.0 0.0 -0.30627498 0.034030553 0.034030553 0.6806111
0.17015277 -0.47642773 -0.068061106 -0.17015277 0.034030553 0.068061106 -0.13612221 -0.068061106
-0.034030553 -0.17015277 -0.068061106 0.0 0.034030553 -0.068061106 0.068061106 0.3743361
-0.034030553 0.068061106 -0.27224442 0.034030553 0.034030553 0.068061106 -0.6806111 0.13612221
-0.13612221 0.20418331 0.034030553 0.0 -0.17015277 0.034030553 -0.47642773 0.23821387
-0.44239718 0.27224442 -0.068061106 0.102091655 -0.17015277 -0.23821387 -0.034030553 0.102091655
0.0 0.34030554 -0.7486722 0.71464163 1.0549471 -0.20418331 -0.17015277 -0.6465805
-0.20418331 0.034030553 0.47642773 0.20418331 -0.27224442 -0.068061106 0.95285547 -0.20418331
0.0 0.034030553 -0.068061106 -0.034030553 -0.44239718 0.0 -0.034030553 0.17015277
0.20418331 -0.40836662 0.034030553 -0.034030553 -0.034030553 0.102091655 0.034030553 -0.17015277
0.034030553 -0.40836662 0.13612221 -0.034030553 0.034030553 -0.068061106 0.102091655 -0.23821387
0.102091655 0.0 -0.034030553 0.068061106 0.0 -0.068061106 0.30627498 0.102091655
-0.034030553 -0.102091655 -0.17015277 -0.034030553 -0.20418331 -0.5785194 -0.102091655 -0.30627498
-0.102091655 -0.17015277 -0.17015277 -0.95285547 0.0 0.34030554 -0.17015277 1.8036193
-0.5104583 -0.47642773 0.102091655 0.034030553 -0.034030553 -0.068061106 0.30627498 -2.3821387
-0.13612221 -0.5785194 0.20418331 -0.13612221 -0.3743361 -1.0889777 3.0967803 0.0
1.293161 0.8507638 -1.3271916 0.986886 -0.23821387 -0.40836662 0.5785194 0.23821387
-0.71464163 1.3952527 -0.30627498 0.95285547 -0.13612221 -0.986886 1.2250999 -5.036522
0.6806111 1.3612221 -0.17015277 -0.034030553 0.068061106 1.1910694 -0.8507638 3.6072385
-1.8036193 -0.34030554 -2.4842303 -1.2250999 1.599436 1.2250999 -4.594125 -0.88479435
0.17015277 0.27224442 -0.102091655 0.0 -0.23821387 0.068061106 0.068061106 -0.27224442
0.0 0.17015277 -0.13612221 -0.034030553 -0.034030553 -0.102091655 -1.1230083 2.0078027
0.034030553 0.34030554 0.102091655 0.0 -0.034030553 -0.034030553 -0.034030553 -0.034030553
-0.27224442 0.068061106 -1.0549471 -0.034030553 -0.40836662 0.102091655 0.034030553 -0.30627498
0.034030553 0.102091655 0.034030553 -0.034030553 0.034030553 0.034030553 0.034030553 0.40836662
0.068061106 0.034030553 0.0 -0.23821387 -0.034030553 -0.13612221 -0.102091655 -0.102091655
0.5104583 -0.034030553 -0.068061106 0.034030553 0.0 0.13612221 -0.17015277 0.27224442
0.102091655 0.102091655 0.0 0.068061106 0.068061106 0.9188249 -0.54448885 -0.034030553
-0.95285547 -0.3743361 0.0 0.068061106 0.102091655 0.034030553 0.0 -0.23821387
0.13612221 -0.40836662 -0.13612221 0.20418331 0.54448885 0.40836662 -0.3743361 -0.13612221
-0.71464163 -0.23821387 0.102091655 0.0 0.0 -0.986886 0.44239718 -1.0889777
0.068061106 0.0 2.0078027 0.23821387 -0.5785194 -1.2250999 1.4633138 0.3743361
00000000: 9791 9595 8c96 96a9 9a87 9390 9697 9193
00000010: 9490 9395 9693 97a0 9497 8d96 9697 8199
00000020: 919b 9695 9096 879c 889d 9398 908e 9498
00000030: 959f 7faa b48f 9082 8f96 a39b 8d93 b18f
00000040: 9596 9394 8895 949a 9b89 9694 9498 9690
00000050: 9689 9994 9693 988e 9895 9497 9593 9e98
00000060: 9492 9094 8f84 928c 9290 9079 959f 90ca
00000070: 8687 9896 9493 9e4f 9184 9b91 8a75 f095
00000080: bbae 6eb2 8e89 a69c 80be 8cb1 9178 b901
00000090: a9bd 9094 97b8 7cff 608b 4c71 c4b9 0e7b
000000a0: 9a9d 9295 8e97 978d 959a 9194 9492 74d0
000000b0: 969f 9895 9494 9494 8d97 7694 8998 968c
000000c0: 9698 9694 9696 96a1 9796 958e 9491 9292
000000d0: a494 9396 9599 909d 9898 9597 97b0 8594
000000e0: 798a 9597 9896 958e 9989 919b a5a1 8a91
000000f0: 808e 9895 9578 a275 9795 d09c 8471 c0a0
